…
am","name":"stdout","text":["Model: \"pointnet\"\n","__________________________________________________________________________________________________\n"," Layer (type)                   Output Shape         Param #     Connected to                     \n","==================================================================================================\n"," input_1 (InputLayer)           [(None, 2048, 3)]    0           []                               \n","                                                                                                  \n"," conv1d (Conv1D)                (None, 2048, 32)     128         ['input_1[0][0]']                \n","                                                                                                  \n"," batch_normalization (BatchNorm  (None, 2048, 32)    128         ['conv1d[0][0]']                 \n"," alization)                                                                                       \n","                                                                                                  \n"," activation (Activation)        (None, 2048, 32)     0           ['batch_normalization[0][0]']    \n","                                                                                                  \n"," conv1d_1 (Conv1D)              (None, 2048, 64)     2112        ['activation[0][0]']             \n","                                                                                                  \n"," batch_normalization_1 (BatchNo  (None, 2048, 64)    256         ['conv1d_1[0][0]']               \n"," rmalization)                                                                                     \n","                                                                                                  \n"," activation_1 (Activation)      (None, 2048, 64)     0           ['batch_normalization_1[0][0]']  \n","                                                                                                  \n"," conv1d_2 (Conv1D)              (None, 2048, 512)    33280       ['activation_1[0][0]']           \n","                                                                                                  \n"," batch_normalization_2 (BatchNo  (None, 2048, 512)   2048        ['conv1d_2[0][0]']               \n"," rmalization)                                                                                     \n","                                                                                                  \n"," activation_2 (Activation)      (None, 2048, 512)    0           ['batch_normalization_2[0][0]']  \n","                                                                                                  \n"," global_max_pooling1d (GlobalMa  (None, 512)         0           ['activation_2[0][0]']           \n"," xPooling1D)                                                                                      \n","                                                                                                  \n"," dense (Dense)                  (None, 256)          131328      ['global_max_pooling1d[0][0]']   \n","                                                                                                  \n"," batch_normalization_3 (BatchNo  (None, 256)         1024        ['dense[0][0]']                  \n"," rmalization)                                                                                     \n","                                                                                                  \n"," activation_3 (Activation)      (None, 256)          0           ['batch_normalization_3[0][0]']  \n","                                                                                                  \n"," dense_1 (Dense)                (None, 128)          32896       ['activation_3[0][0]']           \n","                                                                                                  \n"," batch_normalization_4 (BatchNo  (None, 128)         512         ['dense_1[0][0]']                \n"," rmalization)                                                                                     \n","                                                                                                  \n"," activation_4 (Activation)      (None, 128)          0           ['batch_normalization_4[0][0]']  \n","                                                                                                  \n"," dense_2 (Dense)                (None, 9)            1161        ['activation_4[0][0]']           \n","                                                                                                  \n"," reshape (Reshape)              (None, 3, 3)         0           ['dense_2[0][0]']                \n","                                                                                                  \n"," dot (Dot)                      (None, 2048, 3)      0           ['input_1[0][0]',                \n","                                                                  'reshape[0][0]']                \n","                                                                                                  \n"," conv1d_3 (Conv1D)              (None, 2048, 32)     128         ['dot[0][0]']                    \n","                                                                                                  \n"," batch_normalization_5 (BatchNo  (None, 2048, 32)    128         ['conv1d_3[0][0]']               \n"," rmalization)                                                                                     \n","                                                                                                  \n"," activation_5 (Activation)      (None, 2048, 32)     0           ['batch_normalization_5[0][0]']  \n","                                                                                                  \n"," conv1d_4 (Conv1D)              (None, 2048, 32)     1056        ['activation_5[0][0]']           \n","                                                                                                  \n"," batch_normalization_6 (BatchNo  (None, 2048, 32)    128         ['conv1d_4[0][0]']               \n"," rmalization)                                                                                     \n","                                                                                                  \n"," activation_6 (Activation)      (None, 2048, 32)     0           ['batch_normalization_6[0][0]']  \n","                                                                                                  \n"," conv1d_5 (Conv1D)              (None, 2048, 32)     1056        ['activation_6[0][0]']           \n","                                                                                                  \n"," batch_normalization_7 (BatchNo  (None, 2048, 32)    128         ['conv1d_5[0][0]']               \n"," rmalization)                                                                                     \n","                                                                                                  \n"," activation_7 (Activation)      (None, 2048, 32)     0           ['batch_normalization_7[0][0]']  \n","                                                                                                  \n"," conv1d_6 (Conv1D)              (None, 2048, 64)     2112        ['activation_7[0][0]']           \n","                                                                                                  \n"," batch_normalization_8 (BatchNo  (None, 2048, 64)    256         ['conv1d_6[0][0]']               \n"," rmalization)                                                                                     \n","                                                                                                  \n"," activation_8 (Activation)      (None, 2048, 64)     0           ['batch_normalization_8[0][0]']  \n","                                                                                                  \n"," conv1d_7 (Conv1D)              (None, 2048, 512)    33280       ['activation_8[0][0]']           \n","                                                                                                  \n"," batch_normalization_9 (BatchNo  (None, 2048, 512)   2048        ['conv1d_7[0][0]']               \n"," rmalization)                                                                                     \n","                                                                                                  \n"," activation_9 (Activation)      (None, 2048, 512)    0           ['batch_normalization_9[0][0]']  \n","                                                                                                  \n"," global_max_pooling1d_1 (Global  (None, 512)         0           ['activation_9[0][0]']           \n"," MaxPooling1D)                                                                                    \n","                                                                                                  \n"," dense_3 (Dense)                (None, 256)          131328      ['global_max_pooling1d_1[0][0]'] \n","                                                                                                  \n"," batch_normalization_10 (BatchN  (None, 256)         1024        ['dense_3[0][0]']                \n"," ormalization)                                                                                    \n","                                                                                                  \n"," activation_10 (Activation)     (None, 256)          0           ['batch_normalization_10[0][0]'] \n","                                                                                                  \n"," dense_4 (Dense)                (None, 128)          32896       ['activation_10[0][0]']          \n","                                                                                                  \n"," batch_normalization_11 (BatchN  (None, 128)         512         ['dense_4[0][0]']                \n"," ormalization)                                                                                    \n","                                                                                                  \n"," activation_11 (Activation)     (None, 128)          0           ['batch_normalization_11[0][0]'] \n","                                                                                                  \n"," dense_5 (Dense)                (None, 1024)         132096      ['activation_11[0][0]']          \n","                                                                                                  \n"," reshape_1 (Reshape)            (None, 32, 32)       0           ['dense_5[0][0]']                \n","                                                                                                  \n"," dot_1 (Dot)                    (None, 2048, 32)     0           ['activation_6[0][0]',           \n","                                                                  'reshape_1[0][0]']              \n","                                                                                                  \n"," conv1d_8 (Conv1D)              (None, 2048, 32)     1056        ['dot_1[0][0]']                  \n","                                                                                                  \n"," batch_normalization_12 (BatchN  (None, 2048, 32)    128         ['conv1d_8[0][0]']               \n"," ormalization)                                                                                    \n","                                                                                                  \n"," activation_12 (Activation)     (None, 2048, 32)     0           ['batch_normalization_12[0][0]'] \n","                                                                                                  \n"," conv1d_9 (Conv1D)              (None, 2048, 64)     2112        ['activation_12[0][0]']          \n","                                                                                                  \n"," batch_normalization_13 (BatchN  (None, 2048, 64)    256         ['conv1d_9[0][0]']               \n"," ormalization)                                                                                    \n","                                                                                                  \n"," activation_13 (Activation)     (None, 2048, 64)     0           ['batch_normalization_13[0][0]'] \n","                                                                                                  \n"," conv1d_10 (Conv1D)             (None, 2048, 512)    33280       ['activation_13[0][0]']          \n","                                                                                                  \n"," batch_normalization_14 (BatchN  (None, 2048, 512)   2048        ['conv1d_10[0][0]']              \n"," ormalization)                                                                                    \n","                                                                                                  \n"," activation_14 (Activation)     (None, 2048, 512)    0           ['batch_normalization_14[0][0]'] \n","                                                                                                  \n"," global_max_pooling1d_2 (Global  (None, 512)         0           ['activation_14[0][0]']          \n"," MaxPooling1D)                                                                                    \n","                                                                                                  \n"," dense_6 (Dense)                (None, 256)          131328      ['global_max_pooling1d_2[0][0]'] \n","                                                                                                  \n"," batch_normalization_15 (BatchN  (None, 256)         1024        ['dense_6[0][0]']                \n"," ormalization)                                                                                    \n","                                                                                                  \n"," activation_15 (Activation)     (None, 256)          0           ['batch_normalization_15[0][0]'] \n","                                                                                                  \n"," dropout (Dropout)              (None, 256)          0           ['activation_15[0][0]']          \n","                                                                                                  \n"," dense_7 (Dense)                (None, 128)          32896       ['dropout[0][0]']                \n","                                                                                                  \n"," batch_normalization_16 (BatchN  (None, 128)         512         ['dense_7[0][0]']                \n"," ormalization)                                                                                    \n","                                                                                                  \n"," activation_16 (Activation)     (None, 128)          0           ['batch_normalization_16[0][0]'] \n","                                                                                                  \n"," dropout_1 (Dropout)            (None, 128)          0           ['activation_16[0][0]']          \n","                                                                                                  \n"," dense_8 (Dense)                (None, 10)           1290        ['dropout_1[0][0]']              \n","                                                                                                  \n","==================================================================================================\n","Total params: 748,979\n","Trainable params: 742,899\n","Non-trainable params: 6,080\n","____________________________________________________________
…
