…
"ok","timestamp":1644176746126,"user_tz":0,"elapsed":7,"user":{"displayName":"Rajeev Ratan","photoUrl":"https://lh3.googleusercontent.com/a-/AOh14GgtO-hUyDqrPmYR3HGcaXMtwRIq1ObsdPjhiGDSWSw=s64","userId":"08597265227091462140"}},"outputId":"54684835-9478-4b3a-f57a-9aa04456d5d4"},"outputs":[{"output_type":"stream","name":"stdout","text":["Model: \"3dcnn\"\n","_________________________________________________________________\n"," Layer (type)                Output Shape              Param #   \n","=================================================================\n"," input_1 (InputLayer)        [(None, 128, 128, 64, 1)  0         \n","                             ]                                   \n","                                                                 \n"," conv3d (Conv3D)             (None, 126, 126, 62, 64)  1792      \n","                                                                 \n"," max_pooling3d (MaxPooling3D  (None, 63, 63, 31, 64)   0         \n"," )                                                               \n","                                                                 \n"," batch_normalization (BatchN  (None, 63, 63, 31, 64)   256       \n"," ormalization)                                                   \n","                                                                 \n"," conv3d_1 (Conv3D)           (None, 61, 61, 29, 64)    110656    \n","                                                                 \n"," max_pooling3d_1 (MaxPooling  (None, 30, 30, 14, 64)   0         \n"," 3D)                                                             \n","                                                                 \n"," batch_normalization_1 (Batc  (None, 30, 30, 14, 64)   256       \n"," hNormalization)                                                 \n","                                                                 \n"," conv3d_2 (Conv3D)           (None, 28, 28, 12, 128)   221312    \n","                                                                 \n"," max_pooling3d_2 (MaxPooling  (None, 14, 14, 6, 128)   0         \n"," 3D)                                                             \n","                                                                 \n"," batch_normalization_2 (Batc  (None, 14, 14, 6, 128)   512       \n"," hNormalization)                                                 \n","                                                                 \n"," conv3d_3 (Conv3D)           (None, 12, 12, 4, 256)    884992    \n","                                                                 \n"," max_pooling3d_3 (MaxPooling  (None, 6, 6, 2, 256)     0         \n"," 3D)                                                             \n","                                                                 \n"," batch_normalization_3 (Batc  (None, 6, 6, 2, 256)     1024      \n"," hNormalization)                                                 \n","                                                                 \n"," global_average_pooling3d (G  (None, 256)              0         \n"," lobalAveragePooling3D)                                          \n","                                                                 \n"," dense (Dense)               (None, 512)               131584    \n","                                                                 \n"," dropout (Dropout)           (None, 512)               0         \n","                                                                 \n"," dense_1 (Dense)             (None, 1)                 513       \n","                                                                 \n","=================================================================\n","Total params: 1,352,897\n","Trainable params: 1,351,873\n","Non-trainable params: 1,024\n","_________________________________________________________________\n"]}],"source":["def get_model(width=128, height=128, depth=64):\n","    \"\"\"Build a 3D 
…
