…
://lh3.googleusercontent.com/a-/AOh14GgtO-hUyDqrPmYR3HGcaXMtwRIq1ObsdPjhiGDSWSw=s64","userId":"08597265227091462140"}},"outputId":"ce2e257c-310f-4aa2-ab14-3a14816b6a1c"},"outputs":[{"output_type":"stream","name":"stdout","text":["Model: \"ocr_model_v1\"\n","__________________________________________________________________________________________________\n"," Layer (type)                   Output Shape         Param #     Connected to                     \n","==================================================================================================\n"," image (InputLayer)             [(None, 200, 50, 1)  0           []                               \n","                                ]                                                                 \n","                                                                                                  \n"," Conv1 (Conv2D)                 (None, 200, 50, 32)  320         ['image[0][0]']                  \n","                                                                                                  \n"," pool1 (MaxPooling2D)           (None, 100, 25, 32)  0           ['Conv1[0][0]']                  \n","                                                                                                  \n"," Conv2 (Conv2D)                 (None, 100, 25, 64)  18496       ['pool1[0][0]']                  \n","                                                                                                  \n"," pool2 (MaxPooling2D)           (None, 50, 12, 64)   0           ['Conv2[0][0]']                  \n","                                                                                                  \n"," reshape (Reshape)              (None, 50, 768)      0           ['pool2[0][0]']                  \n","                                                                                                  \n"," dense1 (Dense)                 (None, 50, 64)       49216       ['reshape[0][0]']                \n","                                                                                                  \n"," dropout (Dropout)              (None, 50, 64)       0           ['dense1[0][0]']                 \n","                                                                                                  \n"," bidirectional (Bidirectional)  (None, 50, 256)      197632      ['dropout[0][0]']                \n","                                                                                                  \n"," bidirectional_1 (Bidirectional  (None, 50, 128)     164352      ['bidirectional[0][0]']          \n"," )                                                                                                \n","                                                                                                  \n"," label (InputLayer)             [(None, None)]       0           []                               \n","                                                                                                  \n"," dense2 (Dense)                 (None, 50, 21)       2709        ['bidirectional_1[0][0]']        \n","                                                                                                  \n"," ctc_loss (CTCLayer)            (None, 50, 21)       0           ['label[0][0]',                  \n","                                                                  'dense2[0][0]']                 \n","                                                                                                  \n","==================================================================================================\n","Total params: 432,725\n","Trainable params
…
-/AOh14GgtO-hUyDqrPmYR3HGcaXMtwRIq1ObsdPjhiGDSWSw=s64","userId":"08597265227091462140"}},"outputId":"9ae4bdbd-088b-42d5-f29f-cc000253e960"},"outputs":[{"output_type":"stream","name":"stdout","text":["Model: \"model\"\n","_________________________________________________________________\n"," Layer (type)                Output Shape              Param #   \n","=================================================================\n"," image (InputLayer)          [(None, 200, 50, 1)]      0         \n","                                                                 \n"," Conv1 (Conv2D)              (None, 200, 50, 32)       320       \n","                                                                 \n"," pool1 (MaxPooling2D)        (None, 100, 25, 32)       0         \n","                                                                 \n"," Conv2 (Conv2D)              (None, 100, 25, 64)       18496     \n","                                                                 \n"," pool2 (MaxPooling2D)        (None, 50, 12, 64)        0         \n","                                                                 \n"," reshape (Reshape)           (None, 50, 768)           0         \n","                                                                 \n"," dense1 (Dense)              (None, 50, 64)            49216     \n","                                                                 \n"," dropout (Dropout)           (None, 50, 64)            0         \n","                                                                 \n"," bidirectional (Bidirectiona  (None, 50, 256)          197632    \n"," l)                                                              \n","                                                                 \n"," bidirectional_1 (Bidirectio  (None, 50, 128)          164352    \n"," nal)                                                            \n","                                                                 \n"," dense2 (Dense)              (None, 50, 21)            2709      \n","                                                                 \n","=================================================================\n","Total params: 432,725\n","Trainable params: 432,725\n","Non-trainable params: 0\n","_________________________________________________________________\n"]},{"output_type":"display_data","data":{"image/png":"…\n","text/plain":["<Figure size 1080x360 w
…
